modelCotton.pth (torch, 151813 bytes, 6 tensors)

block.0.weight f4 [10, 3, 3, 3]
000000 86 7e f8 bd 50 d5 09 3e d4 fe ec bd f7 c5 be bd
       -0.121335074 0.13460279 -0.11572042 -0.093151025
000010 27 1f 1f 3d 0a b4 49 3e c0 1a 11 be 8e 46 35 3d
       0.03884807 0.19697586 -0.1417036 0.04425674
000020 10 7b 7f 3d 12 b4 82 3d 5a ba ec 3b 66 9c 13 be
       0.06237322 0.06382002 0.0072243633 -0.1441513
000030 ff ed f8 bd 19 a6 06 be 38 7b 4e 3e b7 a4 3b 3e
       -0.12154769 -0.13149299 0.20164192 0.18324552
000040 10 86 15 bd 9e 23 34 bd e6 7e 85 bd 4d 35 01 3d
       -0.036504805 -0.04397928 -0.065183446 0.031544972
000050 3e c4 62 bd 36 14 3a be b8 08 30 3e 84 37 3d 3e
       -0.055362932 -0.18171772 0.17190826 0.18478209
000060 e1 f7 f4 3d 32 5e 2b be 77 53 e5 3d 89 b3 83 3d
       0.11961342 -0.16735151 0.1119756 0.06430728
000070 9e 3b ab 3c 1d 6c 20 3c d0 78 b0 bd 55 51 6b bc
       0.020902451 0.009791401 -0.08616793 -0.014362653
000080 52 a0 ed 3d 5e cf 75 bd f1 b0 1d bd 5c 74 67 bd
       0.11602844 -0.060012214 -0.038498823 -0.056507453
000090 f6 96 d6 bd a6 9e 8c bd 27 0a b0 bd a6 02 c5 bc
       -0.10478012 -0.06866197 -0.085956864 -0.024049114
0000a0 19 94 f1 3c 8e e1 25 bd ff 6b 66 3d 08 f5 2e bd
       0.029489564 -0.04049831 0.056255337 -0.04271415
0000b0 83 91 7b bd 40 c8 cc 3d d9 a6 94 bd 5c f0 6f 3d
       -0.061418068 0.09999132 -0.07258386 0.058578834
0000c0 72 fc 84 ba 89 9e bb 3c e0 2b fc bc 67 55 a4 bd
       -0.0010146035 0.022902744 -0.03078264 -0.08024102
0000d0 49 94 45 bd 1f 57 9c bc 8d 14 31 3e 06 cd 97 bd
       -0.04823712 -0.019084511 0.17292996 -0.07412152
0000e0 13 e9 34 3e 97 da 36 be bd 05 e3 3d b0 2f 2b 3e
       0.17667036 -0.17856823 0.11085079 0.1671741
0000f0 02 29 b5 3d ee e3 cf bd fa 31 0a 3e 92 a6 20 3e
       0.08845712 -0.10150896 0.13495627 0.15688542
000100 d0 e2 bc 3d 84 8f 06 be 6b 4d 29 3e 87 ce 01 be
       0.092229486 -0.13140684 0.16533439 -0.1267644
000110 54 7a 8f bd f2 32 01 3e 5c f6 e9 3d 8f b5 ea bd
       -0.07005754 0.1261709 0.114239424 -0.11460411
000120 be 4e fd bd e4 0e 8b bd b1 ca 0a 3e 45 b9 af 3d
       -0.123685345 -0.067899495 0.13553883 0.08580259
000130 cb cc 09 be b5 56 3b 3e 41 b4 05 3e 03 48 99 3d
       -0.13457029 0.18294795 0.13057043 0.07484438
000140 0d d9 6b 3d 6d 0a 9d 3d 79 45 0c 3e e8 a7 a1 bc
       0.057580043 0.07668004 0.13698377 -0.019733384
000150 01 89 03 3d be e2 4e 3e 71 d5 0b 3e e0 e9 0f 3e
       0.03211308 0.20203683 0.1365564 0.1405406
000160 58 e1 5c 3e 6b be 0f 3e 14 6d 81 3d a8 c0 b4 3d
       0.21570337 0.14037482 0.06319633 0.08825809
000170 59 fd bb bd 39 1c 13 be dd 9f 7a be 6f b6 23 be
       -0.091791816 -0.14366235 -0.24475046 -0.15987562
000180 14 5b 86 bd bf bb 6c bd c8 e8 53 be 95 0d d3 3d
       -0.065603405 -0.057796236 -0.20694268 0.10305325
000190 22 ca 41 3e c3 b4 c6 3d 22 05 81 3e dc aa 30 3e
       0.18924764 0.09702446 0.2519923 0.17252678
0001a0 d2 61 2d bc 76 c0 57 bd 6c e3 0d 3e d5 53 6d 3d
       -0.010582404 -0.05267378 0.13856286 0.057941277
0001b0 67 80 ef 3d eb e2 ef 3d ed e4 9d 3c 4a 9c 26 be
       0.11694413 0.11713203 0.0192742 -0.16270557
0001c0 01 24 2c 3e d3 c8 26 3e 9e 1f 1e 3c 0a c0 b9 bd
       0.1681061 0.16287546 0.009651093 -0.09069832
0001d0 26 0c af 3d 60 1d 2c be ff 8a e8 bd d9 6f 1e bd
       0.08547239 -0.1680808 -0.113546364 -0.038680885
0001e0 46 ad 2d bd e4 0d a6 3d 6e 8e 0f 3e fe 60 95 3c
       -0.042401575 0.08108118 0.14019176 0.018234726
0001f0 bd 20 9c bd 86 6e 00 be 07 69 af 3d 0b 52 51 bd
       -0.07623432 -0.12542161 0.08564954 -0.051103633
000200 24 5c 5b 3e 57 e5 81 bd 6e 03 e7 bd d0 4b 0f 3e
       0.21421868 -0.06342571 -0.11279951 0.13993764
000210 56 07 21 be c8 63 09 bd 4e 81 86 3d 83 9a 27 3d
       -0.15725455 -0.033542424 0.06567632 0.04091884
000220 52 80 16 be e7 71 03 3e 0a 8b 45 3d fb 6c e6 bd
       -0.14697388 0.12836419 0.0482283 -0.11251255
000230 ac 07 2c 3d 3f 3c db bc 52 d3 a0 3d f8 28 09 be
       0.041999504 -0.026762126 0.07852806 -0.13394535
000240 d5 85 7e bd e6 a6 02 3d d5 4f db 3d 2d 97 c2 3c
       -0.06213935 0.031897448 0.10708586 0.023753727
000250 bd be 0a 3d ce b4 37 be 38 41 1b bd a6 c3 df bd
       0.03387331 -0.17940065 -0.037903994 -0.10925989
000260 62 a2 f8 3c e0 b5 cc bc 23 22 e1 bd 94 49 a5 bb
       0.030350868 -0.024989069 -0.10992839 -0.0050441716
000270 06 06 95 bd 31 f6 a1 bd 45 bc 02 3e d9 07 fa 3b
       -0.072765395 -0.079082854 0.12767132 0.00763033
000280 cb ee a5 3c 03 21 29 3e 37 89 44 3c ce b1 84 bc
       0.020255467 0.16516499 0.011995605 -0.016198065
000290 25 3b 7b 3d f6 ee 22 bd 2c b0 69 bc c1 0f dc bb
       0.0613357 -0.039778672 -0.014263194 -0.006715745
0002a0 fe 0e 34 3c 88 57 05 3d 47 d5 db bd e8 14 29 bd
       0.010989903 0.03255418 -0.10734039 -0.041279703
0002b0 9d eb ae bc d9 3c da bb 41 2d 05 bc 82 bb 22 3c
       -0.021352584 -0.0066600856 -0.008128465 0.009932401
0002c0 2c e9 c7 3d 6d 8a a1 bc 34 13 e4 bc 75 49 2a 3a
       0.09761271 -0.019719327 -0.027841188 0.00064959313
0002d0 d5 30 7e 3d 3a ad 20 bd 51 90 03 bd eb b1 a2 bd
       0.06205829 -0.0392277 -0.032120053 -0.079440914
0002e0 e7 e7 9e bc f6 32 da 3d 4d ca 8f 3c e7 d8 88 bd
       -0.019397689 0.10654251 0.01755252 -0.06681996
0002f0 fc f2 71 bc a9 63 19 bb 0a 57 f7 3c 6d 81 1b 3b
       -0.014767405 -0.002340535 0.03019287 0.0023728267
000300 ad d8 e4 ba dc 94 10 3d 4a a5 e3 3d 7c ed 73 3d
       -0.0017459594 0.035298213 0.11115511 0.059552655
000310 09 b8 27 3c f5 a3 88 bd 46 b1 18 bb fb 0d 0b bc
       0.0102367485 -0.06671897 -0.0023299023 -0.00848722
000320 e8 ef 59 bd 58 29 33 bd e7 61 2c bd 56 bf 8d 3d
       -0.053207308 -0.0437406 -0.042085554 0.0692126
000330 ff fb 7a bc ac ce fb bc 6e e6 ad 3c 66 d6 0d bd
       -0.01531887 -0.030738197 0.021228041 -0.034628294
000340 f9 71 4c 3d e9 f7 3d bb a0 58 1d bd 31 ba f3 bc
       0.04991338 -0.0028986877 -0.038414598 -0.029751869
000350 94 51 7f bd 81 38 04 bd 0c 05 03 3d 86 97 56 3d
       -0.06233366 -0.03228045 0.031987235 0.052390598
000360 24 cf 28 be 28 d0 ac bd fa 3d fa 3d fd 7c 9c bd
       -0.16485268 -0.0843814 0.12218852 -0.07641027
000370 58 20 ce bd 88 f3 2c 3e f3 b4 2c 3e 6b 2e 62 bd
       -0.10064763 0.16889775 0.16865902 -0.05522005
000380 7d b1 1d 3e c5 57 d3 bd 1c 94 97 3d d8 4f d9 3c
       0.15399738 -0.10319475 0.074012965 0.02652733
000390 fd 94 df bd c8 04 f7 3d 30 21 a2 3d 91 54 05 be
       -0.10917089 0.12061459 0.07916486 -0.13020541
0003a0 2b 7f c9 bd 96 da 46 3e 93 ae c1 bd 73 28 08 be
       -0.098387085 0.19419321 -0.094571255 -0.1329668
0003b0 cf 4c 90 bd 3b 98 cf 3d 11 ec 37 3e 46 cc 94 3c
       -0.070459 0.101364575 0.17961146 0.018163811
0003c0 e9 aa 37 3d 4d 46 37 3e 65 99 e6 bd 17 03 2b be
       0.044840727 0.17897911 -0.112597264 -0.16700397
0003d0 34 f7 c6 bd 08 35 4b bd 45 6d 15 3e eb d6 08 be
       -0.09715119 -0.04961112 0.14592464 -0.13363235
0003e0 40 04 0f 3e 5b 0a e0 bc 2d 89 36 be 83 fe 16 be
       0.13966465 -0.027348688 -0.17825766 -0.14745526
0003f0 cc 90 3a be 2d fe 2a be ec a0 44 bd 83 e3 ec bd
       -0.18219298 -0.16698523 -0.04800503 -0.11566832

block.0.bias f4 [10]
000000 49 87 77 bd 0f c6 13 3d f4 36 09 bd 0c c1 86 bd
       -0.060431752 0.036077555 -0.033499673 -0.065797895
000010 7b 42 ce bd aa 9e 99 bc 62 3d c3 bd a0 00 a8 bd
       -0.10071274 -0.018752415 -0.09533192 -0.08203244
000020 fb 03 23 be 51 58 9f 3c
       -0.15919487 0.019451292

block.2.weight f4 [10, 10, 3, 3]
000000 1b 5d b6 3d ca 10 db 3c ac b6 26 3e e0 df 2d bd
       0.08904477 0.026741404 0.16280621 -0.042449832
000010 94 78 e2 3d 44 7c 98 3d 50 50 d4 3d d9 cd 10 3e
       0.11058155 0.07445577 0.10366881 0.14141025
000020 cf 96 02 3e 3c 9e f5 3c a9 04 7c 3d 08 19 ca bb
       0.12752841 0.029982679 0.06152788 -0.0061675347
000030 03 09 9d bc 05 79 86 3d 16 ac 87 bd 7b aa 8e 3d
       -0.019169336 0.065660514 -0.0662462 0.0696611
000040 e7 10 8d 3d ef 2d 70 bd 7e fd bd bc af 44 bc 3c
       0.068879895 -0.058637556 -0.023192164 0.02298197
000050 cf a0 fd bd ab 08 20 be fa 97 bf bd 1d 8b 9c bd
       -0.123841874 -0.15628307 -0.09355159 -0.07643721
000060 90 92 a0 3c c8 70 87 bd 87 12 c0 bd 6c dd 17 be
       0.019601136 -0.06613308 -0.09378534 -0.1483056
000070 c2 e1 28 be 56 8c 09 be b8 4c 2f be 4e 2b 16 be
       -0.1649237 -0.1343244 -0.1711911 -0.14664957
000080 35 d0 8c bd e8 9d 36 bc aa ab 16 bd 3d a8 46 be
       -0.0687565 -0.011146046 -0.036784805 -0.19400115
000090 7d 49 14 3e 69 47 92 bc 57 97 39 3e 3c d2 e3 3d
       0.14481159 -0.017856317 0.18124138 0.111240834
0000a0 e1 ac b6 3d e1 76 00 3e ec 1a 4c ba 38 91 d5 3b
       0.08919693 0.12545349 -0.0007785994 0.0065175556
0000b0 c4 2a 17 3c f8 aa bc 3b 0d 3b 72 3d e3 83 81 bd
       0.009226505 0.0057576858 0.059138346 -0.063239835
0000c0 8c 99 67 3d ce f1 51 bd 4a ad be bc b8 56 4d 3d
       0.056542918 -0.051255994 -0.02327599 0.05013153
0000d0 70 fc 8a 3d 46 43 46 bd ca ed a6 bc c8 5f 63 bc
       0.0678643 -0.048404 -0.020377059 -0.0138778165
0000e0 9d c5 a9 bc df cb 91 bc 7f 15 19 bd fe f3 54 bc
       -0.020724112 -0.017797409 -0.037374016 -0.012997625
0000f0 59 ca c1 bc 37 9e f8 3b 4c 3f c9 bc 61 24 6c bb
       -0.023656057 0.00758722 -0.024566315 -0.0036032426
000100 77 b8 96 bb bc 1e 7c 3c 94 42 88 bb 16 fa 80 bc
       -0.0045996266 0.015388187 -0.0041583274 -0.01574425
000110 34 89 96 3b f2 b6 66 bb aa 79 b0 ba e3 cf b7 3a
       0.0045939926 -0.0035204259 -0.0013463993 0.0014023747
000120 bc 77 71 3d 18 4a 06 3e 46 92 16 3e 7e 89 71 3d
       0.05895208 0.13114202 0.14704236 0.058969013
000130 92 c5 19 3e 64 2e 25 3d ae 1e a0 3d 74 99 09 3d
       0.15016773 0.040327445 0.07818352 0.03359361
000140 8f cf 03 bd 2b a6 11 bd 49 4d 2a 3d c1 56 7f bd
       -0.032180365 -0.03555886 0.04157761 -0.062338594
000150 cf 2f 7e bb ce 34 68 bd ea 4a 10 bc cc 6c a4 bd
       -0.003878582 -0.056690983 -0.008806923 -0.08028564
000160 f3 00 a2 3d cf 70 49 bd e7 16 8c bd 8a d6 75 bd
       0.07910337 -0.04917985 -0.06840306 -0.060019054
000170 92 c8 90 bc ba df 21 3d 72 93 b1 3c ec 68 8f 3c
       -0.017673764 0.039520003 0.021676753 0.017506085
000180 5a 8f 69 3d 37 9c 3e 3d 03 fb 36 bd 50 ad 27 3b
       0.057021476 0.046535697 -0.044672977 0.002558548
000190 23 a0 38 bb cd d4 95 bc b8 1b 19 3c 53 fa 24 bd
       -0.002817162 -0.018289948 0.009344988 -0.04027779
0001a0 f6 5e 02 bd 2e 69 12 bc c3 d5 20 bd c4 b6 d4 bc
       -0.031828843 -0.00893621 -0.03926636 -0.025966056
0001b0 d2 ac ba bd b6 e4 c9 bc ff 69 98 bd 23 1b 06 bd
       -0.09114994 -0.02464519 -0.07442092 -0.032740723
0001c0 26 58 89 3d e5 e3 fb bc 01 6e 09 3d 03 9c 63 3d
       0.06706266 -0.030748317 0.033552174 0.055568706
0001d0 cf be b0 3d 85 6b d0 bd 49 18 2b 3d 18 2d e4 3c
       0.08630144 -0.10176758 0.041771207 0.027853534
0001e0 40 e3 80 3c c0 31 96 3d c5 41 b2 3d 62 15 39 bb
       0.015733361 0.07333708 0.08703951 -0.0028241505
0001f0 2f 57 ae 3b cc 33 cd 3d 81 a3 9d 3b 03 59 e4 bb
       0.0053204517 0.10019645 0.004810751 -0.006968619
000200 74 2e af 3d a0 9f a2 3d 67 0c 08 3e 21 81 56 3d
       0.08553782 0.07940602 0.13285981 0.05236924
000210 44 a8 f2 3c 3c 20 80 3d ea 7b 8d 3d a7 28 47 bc
       0.02962125 0.06256148 0.069084 -0.012155688
000220 14 ff 87 bd 76 b3 46 3b 2c 2b 41 3c 5e 94 03 3d
       -0.06640449 0.003031937 0.011790078 0.032123916
000230 c7 fe 33 bc b7 1a 92 bd 30 e6 41 bd 64 11 84 bd
       -0.010986037 -0.07134002 -0.047338665 -0.064486295
000240 c7 50 bf bb b3 96 c6 bb bd 5c 10 3b 16 01 89 bc
       -0.005838487 -0.006060445 0.0022027933 -0.01672415
000250 dd 5e 29 bc 63 b8 32 bc b5 8b ed 3b 31 67 99 bc
       -0.010337559 -0.010908219 0.0072493204 -0.018725963
000260 97 8a a4 bc 2a a3 74 ba cd 34 12 b9 9c 14 e2 3b
       -0.020085616 -0.00093321747 -0.00013943315 0.0068994295
000270 75 3d 01 3c 82 8d b6 3a 66 37 f4 3b 95 ae 68 3c
       0.007888188 0.0013927671 0.007452893 0.01420178
000280 9d 6a ad 3b 01 68 3a 3a 2d bf 5d bd 49 49 b6 bd
       0.0052922503 0.00071108347 -0.054137398 -0.08900697
000290 20 25 9a 3d c8 03 d2 bc 6a ba b9 3d de 91 1a 3d
       0.07526612 -0.025636569 0.09068759 0.037736766
0002a0 54 c4 e4 3b e3 80 11 bd 41 f9 da bd 50 f3 9f bc
       0.006981412 -0.035523307 -0.10692073 -0.0195252
0002b0 35 44 38 3d 15 ca 4e bd b5 15 8d bd a3 16 8c bb
       0.044986922 -0.05048569 -0.06888906 -0.0042751594
0002c0 d5 23 1c 3d bb a2 e6 bc 77 24 5c bd 96 3e 86 bd
       0.03812011 -0.028153768 -0.053745713 -0.06554906
0002d0 42 fa db 3d 4e 05 22 3e 74 f1 1e 3e 69 55 c3 3d
       0.10741092 0.15822336 0.15521795 0.09537775
0002e0 37 e6 21 3e 80 b3 30 3e cd a9 09 3e 5a 6e 54 3e
       0.15810476 0.17255974 0.1344368 0.20745221
0002f0 bc 84 8a 3e d7 19 bb bd 29 fe 96 bc 5c f9 7b 3d
       0.27054393 -0.09135788 -0.01843174 0.061517105
000300 1f 7d c4 bc e0 82 75 bd 1d 5c 68 3d ec b6 3a bd
       -0.023985444 -0.059939265 0.05672847 -0.045584604
000310 25 10 2f 3c 02 64 1a bd df c1 8b bd 2f c7 b8 3d
       0.0106850015 -0.03769303 -0.06824087 0.09022366
000320 27 59 61 3d d1 10 7d 3d 77 4a 41 3d 3c 55 b8 bd
       0.055016663 0.061783615 0.047190156 -0.09000632
000330 8a 93 63 3d 2d d3 e8 bb b4 cd 05 3c 1d fa 8c bd
       0.055560626 -0.0071052522 0.008166719 -0.06883643
000340 35 ef b5 bd a2 a8 06 be 30 6a 84 3d f8 7d 17 be
       -0.08883516 -0.13150266 0.06465566 -0.14794147
000350 df 4d 15 be fa 6c 55 3c 56 06 02 be ca e1 90 bd
       -0.14580487 0.01302647 -0.1269773 -0.07074316
000360 1d ce 29 3c 8b 40 77 bb 88 77 4d bd 87 5d 0b 3d
       0.010364083 -0.003772768 -0.050162822 0.03402474
000370 83 1b 92 3d 03 2d 51 bd 84 bd 6c 3d f0 78 db bd
       0.07134154 -0.051068317 0.057797924 -0.10716426
000380 a7 8e 25 bd 30 88 36 bd cf 82 26 bd f5 75 91 bc
       -0.040419247 -0.044563472 -0.040652093 -0.017756442
000390 b3 f0 c1 3c 52 ad 54 bc ed 88 f2 3c b7 e6 e8 3c
       0.023674345 -0.012980776 0.029606307 0.028430326
0003a0 b0 d6 2c 3c 2e 5d 48 bd b7 91 55 bc fd 18 87 bb
       0.010549232 -0.048916988 -0.013035229 -0.004122852
0003b0 cf 98 80 bc 2a 16 a2 bb ec ba 04 bc 17 0f 11 bc
       -0.015697865 -0.00494649 -0.008101206 -0.008853695
0003c0 ac 10 69 bb b5 fa b5 3c a3 14 03 bc a2 e2 a8 bb
       -0.0035562916 0.022214273 -0.008000526 -0.00515397
0003d0 31 0e 8b 3b 29 df 92 3b 02 3e 23 3b 23 2a 0f 3b
       0.004243635 0.004482169 0.0024908786 0.0021845184
0003e0 c5 19 4b 3b d7 e0 8b 3a 81 d2 c1 3b ca 2a ea 3b
       0.0030990702 0.0010671866 0.0059149866 0.007146214
0003f0 bd 45 6f 3e c6 67 44 3e b3 68 d1 3d 5b 75 16 3e
       0.23366447 0.19180211 0.10225048 0.14693205

block.2.bias f4 [10]
000000 f0 c2 b1 3e 39 36 0b 3d 2b a1 26 3d a3 23 13 bd
       0.34719038 0.033987258 0.040681046 -0.035922658
000010 dc cf 0b bd 17 c1 03 be 6a cb d6 bd bf fe 58 3d
       -0.034133777 -0.12866627 -0.10488017 0.05297732
000020 3d f0 7f bd 81 5e 8e 3d
       -0.06248497 0.06951619

classifier.1.weight f4 [4, 9000]
000000 3f e2 53 bc cf be e3 bc 82 0b 07 bd 28 7d 0a bd
       -0.012932359 -0.027800946 -0.03296996 -0.033810765
000010 5d 58 c7 bc 8a c2 a3 bc 94 6b ae bc 82 26 c5 bc
       -0.024334127 -0.019990224 -0.021291532 -0.024066214
000020 f1 3a 8f bc d0 28 dd bc 1d 29 e5 bc fd 79 ba bc
       -0.01748416 -0.026997 -0.027973706 -0.022763247
000030 f2 ad 81 bc 81 52 9b bc 2b 4a 83 bc 1f e0 d8 3b
       -0.015830014 -0.01896024 -0.016026577 0.006618514
000040 bf 2c 1a 3b 9e 41 15 bc 75 42 69 3b 79 5f f2 39
       0.0023525206 -0.009109883 0.003559259 0.0004622897
000050 07 cd 44 bc 4c 7f ed bb e9 b4 a9 bb c1 19 92 bc
       -0.012011773 -0.007247841 -0.005179037 -0.017834546
000060 b3 a1 8c bc 21 17 61 bc f0 e5 92 bb 62 62 42 bb
       -0.017166948 -0.0137384245 -0.004482977 -0.0029660692
000070 e5 53 f1 ba d0 f3 7f bb de c2 e5 bc 02 da e0 bc
       -0.0018411843 -0.0039055236 -0.028047021 -0.027447704
000080 0c 66 db bc 03 2e c0 bc 1a 61 b3 bc 35 99 89 bc
       -0.026782058 -0.02345944 -0.021896888 -0.016796688
000090 5a 7b 8e ba da 94 36 bc 35 6c a3 bc 1e 16 8b bc
       -0.0010870502 -0.011143887 -0.019949058 -0.01697832
0000a0 b5 ec c5 bc dd cd 87 bc 2d 58 4b bc e5 42 53 bc
       -0.024160722 -0.016577655 -0.012411159 -0.012894367
0000b0 26 d3 43 bc 73 14 3a 39 f9 8a 14 3c 59 9a 06 3c
       -0.011952197 0.0001774596 0.009066337 0.00821551
0000c0 6c 61 7b bb 03 22 b9 3b dc 14 76 ba a8 51 9f bb
       -0.0038357629 0.0056498065 -0.00093872636 -0.004862029
0000d0 aa 33 62 bc 00 1f 4e bc 80 1a 1c bb 59 ef 37 bc
       -0.013806263 -0.012580633 -0.0023819506 -0.0112264985
0000e0 f9 48 77 3b a5 ee b9 3b ca 17 97 bb 9e b9 a0 3b
       0.0037732704 0.0056742006 -0.00461099 0.00490494
0000f0 6c ca 19 bd 3b f2 a3 bc 35 0f da bc ea e8 9a bc
       -0.03754656 -0.020012965 -0.02661858 -0.01890989
000100 fc 24 85 bc b5 6e 78 bb a5 cd fb bb d5 aa a2 3a
       -0.016252987 -0.0037907783 -0.007684427 0.0012410531
000110 4e d1 12 bc e7 9a a6 3b 2b c7 b4 bb 47 6b 8e 3b
       -0.008961035 0.0050843838 -0.0055169067 0.0043462845
000120 4e f7 41 3b 52 8b dd 3b 23 07 0a 3c aa a1 82 3c
       0.0029596868 0.006760993 0.008424553 0.015946228
000130 c7 4a fa 3b 27 a7 1a 3b 11 96 fc ba 90 33 5a 3b
       0.0076383087 0.0023598166 -0.0019270797 0.0033294894
000140 16 07 c5 bb 46 22 1a 3b cd eb 35 bb 4c f7 59 3c
       -0.0060128076 0.0023518964 -0.0027758956 0.013303589
000150 d4 9c 1d 3c 72 47 ae 3b fb 8f 29 3c 64 ff d1 b9
       0.00961991 0.0053185755 0.010349269 -0.00040053867
000160 37 6c bc bb 8c 77 2d bc eb 27 28 bd b5 2f de bc
       -0.005750205 -0.010587584 -0.041053694 -0.027122358
000170 c2 0f db bc 8e f3 0f 3b d4 e0 11 bb 62 e7 2d 3c
       -0.026740912 0.0021965238 -0.0022259252 0.010614248
000180 1c da 00 3c 71 f6 cf 3b c9 84 53 3b f5 c0 8e 3c
       0.007864501 0.006346517 0.003227519 0.017425993
000190 81 4f 2a 3b a7 f5 e0 3c 2a cf f5 3c e6 8b 45 3c
       0.002598733 0.027460886 0.03000601 0.01205728
0001a0 f0 5d 1a 3c 87 8f 88 3c f4 dc 89 3c 8a ae a0 3c
       0.0094218105 0.016670002 0.016828991 0.019614477
0001b0 74 1f ca 3c 7f c2 6c 3c 3a 57 87 3c 01 3b a1 3c
       0.024673201 0.014450668 0.016521085 0.019681456
0001c0 30 1d 4d 3c e3 d4 ec 3b ce d9 a0 3c 07 df 97 3b
       0.012519166 0.0072275265 0.019635107 0.004634741
0001d0 b3 b2 60 3b d8 c9 a1 3b 74 c0 4f 3b 04 5a 47 3c
       0.00342862 0.0049373917 0.0031700404 0.0121674575
0001e0 31 e3 57 bd d4 1b e7 bc 28 07 ac bc 33 61 3e 3b
       -0.0527069 -0.028211512 -0.020999506 0.0029049634
0001f0 b4 b4 8e 3c 8a b8 8f 3b 9e d3 16 bb 0f 5e fc 3a
       0.01742015 0.0043860124 -0.0023014317 0.0019254106
000200 af b8 d2 3b 3d 57 6d 3c 9b 0c 86 3c fc f3 c2 3b
       0.0064307074 0.014486131 0.016363433 0.0059494954
000210 0e b5 03 3d d0 50 87 3c 56 6e a2 3c ad 9e ce 3c
       0.03215509 0.016518027 0.019828003 0.025222147
000220 03 2d fc 3c da fb 14 3d b4 2d e2 3c d1 46 95 3c
       0.030783182 0.036372997 0.027609684 0.018222244
000230 73 ce ad 3c 2e d4 11 3d 40 2e e2 3c 86 07 76 3c
       0.021216607 0.03560274 0.027609944 0.015016442
000240 4d 3a 61 3c 8e 08 06 3c a8 a0 35 39 47 e7 9a 3b
       0.01374681 0.0081807505 0.00017321354 0.0047272774
000250 98 fa 40 3c 36 e0 8e 3c f6 af db bc c8 0e cc bc
       0.011778496 0.017440896 -0.026817303 -0.024909392
000260 d4 5c 30 bc 01 5b 23 3b 78 f4 1a 3c 34 9a 5f 3c
       -0.010764319 0.0024926069 0.0094577 0.013647605
000270 c3 8a fc 3b bb 97 1e 3c d2 e5 50 3c 2b 7f 36 3c
       0.0077069714 0.00967973 0.012750106 0.011138718
000280 7c cd 3e 3c 96 aa a4 3c 10 14 ae 3c ec 28 b5 3c
       0.011645671 0.020100873 0.0212498 0.02211424
000290 12 08 93 3c 45 b3 28 3c 9e 24 40 3b 30 30 00 3c
       0.017948184 0.010296647 0.00293187 0.007823989
0002a0 18 e0 9d 3c 44 f4 c9 3c e1 1d 02 3d d3 fc e7 3c
       0.019271895 0.024652608 0.031766776 0.028318798
0002b0 99 5a 19 3d 92 0b e5 3c 25 90 6f 3c e4 e1 20 ba
       0.037439916 0.027959619 0.014621769 -0.0006137176
0002c0 64 2f 60 ba b9 cb a1 3b 0b b4 82 3c c2 ed 12 3c
       -0.00085519836 0.0049376157 0.015954992 0.008967819
0002d0 11 ad c9 bc a2 2d 8e bc 4a 02 1b bc ac 11 de 38
       -0.024618657 -0.017355744 -0.009460995 0.000105890766
0002e0 32 11 b2 3c f1 75 a9 3c c2 bc 01 3b a8 f1 1e 3c
       0.021736715 0.020686122 0.0019796346 0.00970117
0002f0 db 6a f6 3a a7 31 6e 3c 65 55 71 3c e7 ac 06 3d
       0.0018800156 0.014538205 0.014729832 0.032879736
000300 b5 fe a6 3c 7b 3d 18 3d 04 06 ae 3c 09 1c 79 3c
       0.020385126 0.037168007 0.021243103 0.015204438
000310 c0 8c 26 3c 72 fa e0 3b ae 0b 22 3c b9 ce 87 3c
       0.010165393 0.006865793 0.00989048 0.016578065
000320 63 d8 d1 3c 5f 45 d8 3c a3 61 21 3d 60 27 bc 3c
       0.025615877 0.026400266 0.039399754 0.022967994
000330 db 62 98 3c 9f 33 96 3a 8f 99 6c 3c b1 bd 80 3c
       0.018601825 0.0011459476 0.014440908 0.015715452
000340 14 33 8d 3c 45 09 b5 3c c6 7c bb bc 8f cd 4d bc
       0.01723627 0.022099147 -0.022886645 -0.012561216
000350 9d 65 dc 3a e9 7c 91 3c 7b b2 b2 3c 4b e3 b1 3c
       0.0016814951 0.017759757 0.021813622 0.021714827
000360 8e a7 d8 3a 1f 26 94 3c 38 c6 b2 3c 49 29 89 3c
       0.0016529427 0.018084584 0.021823034 0.01674332
000370 68 01 95 3c 90 40 e0 3c 5b 75 ba 3c ca 07 30 3d
       0.018189147 0.027374536 0.022761038 0.04297618
000380 f8 f6 02 3d 10 1b 07 3d ae bb d7 3c bd 69 8f 3c
       0.03197381 0.032984793 0.02633461 0.017506475
000390 75 3c da 3c 5d bc 26 3c c4 37 b7 3c 88 84 cf 3c
       0.026640156 0.010176745 0.022365458 0.02533175
0003a0 73 83 1e 3d 28 a1 c2 3c 8a f1 49 3c c9 aa 5a 3b
       0.03869958 0.023758486 0.012325654 0.0033365956
0003b0 7b 10 83 3c 40 7a 94 3b 2f 70 7d 3c d7 12 ed 3c
       0.01599907 0.004531175 0.015468641 0.028939648
0003c0 8e 1b 99 bc 80 9d ae 39 78 76 d9 3b 50 04 80 3c
       -0.018689897 0.00033305213 0.006636437 0.015627056
0003d0 ca 4c e5 3b e7 12 41 3c 1c e4 4c 3c 97 fa aa 3c
       0.0069976794 0.011784292 0.012505557 0.020871444
0003e0 4f eb f9 3c 49 e6 e7 3c 36 e7 0a 3d 56 ee d0 3c
       0.030507712 0.02830805 0.033911906 0.025504272
0003f0 12 06 38 3d fd c4 0e 3d 97 27 fc 3c 09 b7 17 3d
       0.044927664 0.03485583 0.030780597 0.03703979

classifier.1.bias f4 [4]
000000 fa fe 1d ba b5 f8 4a 3d 8a 9e 25 bd 78 42 ab 3c
       -0.0006027069 0.04955359 -0.040434398 0.020905718
